mnist_mlp.onnx (onnx, 6676 bytes, 2 tensors)

layers.1.bias f4 [64]
0.012181563 -0.023761328 -0.00039484247 0.033764556 0.002172568 0.015849425 -0.004253903 -0.035297528
0.012411876 0.01598069 -0.008459045 0.019689672 -0.028815445 0.02232172 -0.02137277 -0.023165066
0.02236658 -0.021721061 -0.019496549 -0.03014476 -0.031360257 -0.009948871 0.024170732 0.023109777
-0.019548945 0.013159565 -0.028496424 0.005573635 0.034862332 0.0074654054 0.015686078 -0.002631771
0.0010834038 0.011083459 -0.01276531 0.029081443 -0.0206211 -0.022737406 -0.035479505 0.0029188865
-0.02322014 -0.0034228947 0.0008972586 -0.010674656 -0.005408151 -0.009760926 -0.020343065 0.008741277
0.024919963 -0.0323797 0.016398363 0.032628257 0.022947526 -0.033318944 0.007376918 -0.030478142
-0.027972665 -0.03135497 -0.016135838 -0.027414622 0.025618704 -0.019707348 -0.01373183 0.028579475
00000000: 2e95 473c 1ea7 c2bc dc02 cfb9 b44c 0a3d
00000010: a561 0e3b a7d6 813c 5364 8bbb 2494 10bd
00000020: 2e5b 4b3c f0e9 823c ce97 0abc 3c4c a13c
00000030: 5e0e ecbc 0adc b63c f315 afbc aac4 bdbc
00000040: 1e3a b73c 5ef0 b1bc 3ab7 9fbc 25f2 f6bc
00000050: 9d73 00bd 9700 23bc b301 c63c b750 bd3c
00000060: 1c25 a0bc 379b 573c 5571 e9bc 0aa3 b63b
00000070: cecb 0e3d 5ca0 f43b 1780 803c ca79 2cbb
00000080: 0001 8e3a 6597 353c 9725 51bc 353c ee3c
00000090: 95ed a8bc cc43 babc f552 11bd ca4a 3f3b
000000a0: 2a38 bebc a552 60bb 0136 6b3a c1e4 2ebc
000000b0: dc36 b1bb 4aec 1fbc 80a6 a6bc 9337 0f3c
000000c0: f324 cc3c 94a0 04bd dc55 863c 35a5 053d
000000d0: 73fc bb3c 7279 08bd 13ba f13b 4cad f9bc
000000e0: ee26 e5bc 126e 00bd 4e2f 84bc a194 e0bc
000000f0: 51de d13c 4e71 a1bc 78fb 60bc 811f ea3c

layers.3.bias f4 [10]
-0.10835564 -0.081376344 0.034521177 -0.03833887 0.04338643 -0.050790206 0.09435737 0.107841834
0.12357469 -0.003200248
00000000: 90e9 ddbd a4a8 a6bd 1466 0d3d 3809 1dbd
00000010: f8b5 313d 6409 50bd 703e c13d 2edc dc3d
00000020: ba14 fd3d 40bb 51bb
