mnist_mlp.onnx (onnx, 6692 bytes, 2 tensors)

layers.1.bias f4 [64]
0	0xbd04894e	-0.032357506
1	0x3cad5f07	0.021163477
2	0xbcb16b0c	-0.02165749
3	0xbc496885	-0.012292986
4	0xbcc56c55	-0.024099508
5	0xbd1117dc	-0.035423145
6	0xbb3eaca5	-0.0029094603
7	0x3cfd1a93	0.03089646
8	0x3c2edda1	0.010672958
9	0x3ca945ac	0.020663105
10	0xbcc84d77	-0.024451
11	0xbcf876d8	-0.030330107
12	0xbcc16025	-0.023605416
13	0x3c848030	0.016174406
14	0x3c8c5ba5	0.017133543
15	0xbc383ddc	-0.011245217
16	0x3cf4e788	0.029895559
17	0xbcfccbc8	-0.03085889
18	0xbd07430d	-0.03302293
19	0xbd09d0d6	-0.033646427
20	0xbd0132ee	-0.03154271
21	0x3cdb9dec	0.026808701
22	0x3c2c316e	0.010509832
23	0x3c001b6e	0.00781904
24	0x3cd7a11c	0.02632194
25	0x39923925	0.00027889866
26	0x3ca83f6a	0.02053805
27	0x3c91bf2a	0.01779135
28	0xbc8a13fa	-0.016855229
29	0xbc0ba733	-0.00852375
30	0x3b06fd25	0.0020597663
31	0xbc14c4ca	-0.009080121
32	0xbc77506e	-0.0150948595
33	0x3cedbbb3	0.029020166
34	0x3c056b00	0.008143187
35	0xbceb63e1	-0.02873415
36	0x3ce4eeda	0.027945925
37	0xbcf70898	-0.030155465
38	0x3bbf61c1	0.0058405106
39	0x3cd385c1	0.025820615
40	0xbcf88f11	-0.030341657
41	0xbcf1789c	-0.029476456
42	0x3b2fd825	0.0026831713
43	0x3c031ac0	0.008001983
44	0xbb99426e	-0.0046771085
45	0xbcbd6e27	-0.023123814
46	0x3cfe9a23	0.031079357
47	0xbc7b1a4a	-0.015326092
48	0xbd0d2eb4	-0.034468368
49	0xbcb31de3	-0.021864837
50	0xbc83a670	-0.016070575
51	0xbcfffe4e	-0.031249192
52	0x3d00a9c4	0.0314119
53	0xbc6522b3	-0.013985324
54	0xbc6cd6ae	-0.0144554805
55	0xbcc5a8de	-0.024128374
56	0x3c5b9658	0.013402544
57	0x3c4b79ee	0.012419207
58	0x3bcc9d0a	0.0062443065
59	0xbc89f7f7	-0.016841872
60	0xbb7dac13	-0.00387073
61	0x3c88f22a	0.016717035
62	0x3cce26dc	0.025165014
63	0x3cdf5728	0.027263239

layers.3.bias f4 [10]
0	0x3de43386	0.1114264
1	0x3d811f56	0.06304805
2	0x3d757184	0.05992271
3	0x3da0d58e	0.07853232
4	0x3d8186b6	0.06324522
5	0x3cc491c0	0.02399528
6	0x3dda8d9e	0.106715426
7	0xbde92d4a	-0.11385591
8	0xbda48216	-0.080326244
9	0x3d145310	0.036212027
